audio_cnn_model.pth (torch, 551533 bytes, 4 tensors)

fc.0.weight f4 [256, 512]
000000 b4 de ff ba 22 7f ea 3d e5 65 bc 3d f9 78 cd bd
       -0.0019521327 0.1145003 0.09199122 -0.10032839
000010 9c fc 5c bc 2c df 5a bd 81 4f 22 3c f5 19 f9 bd
       -0.013487961 -0.05343549 0.0099066505 -0.12163154
000020 79 97 71 bd a5 b7 1f 3d 7b 61 6a be 05 12 24 be
       -0.058982346 0.038993496 -0.22888748 -0.16022499
000030 0e 6f a1 bd be b1 01 bd 1c d2 2f be bf 5f fe bc
       -0.0788251 -0.03166365 -0.17169994 -0.031051515
000040 f6 c4 b0 bc 48 69 c1 bd c7 63 47 be 74 93 c4 3c
       -0.021578293 -0.09443909 -0.19471656 0.023996092
000050 2e fd bf bd ca b6 dc bd aa 33 80 3d 06 c4 6d 3d
       -0.09374462 -0.10777052 0.06259854 0.05804827
000060 6b 5e ae 3d 70 45 73 39 24 b9 82 bd 19 24 25 bd
       0.085141025 0.00023200153 -0.06382969 -0.04031763
000070 0b 75 e0 3a 54 41 d9 bd b3 d5 ac 3c d7 23 2a be
       0.0017124725 -0.106081635 0.021097993 -0.16615234
000080 4c 1e 2f 3e 55 fc ce bd 24 ed 6e 3e 85 4c 6d 3e
       0.17101401 -0.10106722 0.2333265 0.23173721
000090 ca 6b 44 3c 22 08 3c 3d d0 f9 3e 3d 5d d3 57 be
       0.01198859 0.045906194 0.04662496 -0.21076722
0000a0 71 96 9d bd 3e 2b 7f 3c 4a ad fd 3c 0d f4 96 3b
       -0.0769471 0.015574275 0.03096642 0.00460673
0000b0 d3 34 15 3d 17 f7 68 3e 9d 86 f2 bd 98 dd 66 bd
       0.03642733 0.22750507 -0.11842082 -0.056363672
0000c0 05 93 a0 bd 40 71 3c 3e 7d b8 1e bd 03 d8 25 3e
       -0.07840542 0.18402576 -0.03875016 0.16195683
0000d0 0c 8b 2a 3e 2b 20 6f 3d ef 92 ea bd 01 77 33 3e
       0.16654605 0.058380287 -0.114538066 0.17525865
0000e0 d6 7a 25 3d 23 1c af bb 50 13 f3 3d 1b a5 c1 3c
       0.04040035 -0.0053439303 0.11868918 0.023638299
0000f0 04 ff a9 3a 41 ab 44 3d 85 e5 17 be bf 55 73 bc
       0.0012969677 0.048014883 -0.14833649 -0.014851986
000100 50 bc 29 3e 71 d6 96 3d aa 84 80 3e bf 40 4d bd
       0.16575742 0.0736512 0.25101215 -0.050110575
000110 c7 26 5f be d6 15 a8 bc 14 1d c6 3d d2 d8 46 be
       -0.21792136 -0.020518225 0.09673515 -0.19418648
000120 87 86 54 bd 59 5e ff bd 7d 79 0a be 24 74 6c 3d
       -0.051886108 -0.12469167 -0.13522907 0.057727948
000130 d8 75 ea 3d ec 7b fc 3d 42 58 40 3d 66 26 e4 3d
       0.11448258 0.12328324 0.04695917 0.111401364
000140 dd c3 2a bc cd ef ff bc d5 d6 ff bd a4 39 47 3d
       -0.010422674 -0.031242276 -0.12492148 0.048638955
000150 2d e1 08 3b 57 cd c0 bd ab be 76 3d f5 ec cd 3d
       0.0020886168 -0.094141655 0.06024043 0.100549616
000160 65 9e 39 3e aa f8 47 3d bd 6b 8c bd 5b 15 44 be
       0.18126829 0.04882113 -0.06856487 -0.19148771
000170 20 9b 33 3d 1d fe 5b 3d 66 8b 42 bc f0 b5 5b 3e
       0.04384911 0.05370914 -0.0118740555 0.21456122
000180 6f d9 21 be 5f f4 4a be be 46 0f be 9e 5f 1d be
       -0.158056 -0.19819783 -0.1399183 -0.15368506
000190 53 6e 02 3e 15 01 03 bd b4 ec 9d 3b 1a 5e 7c bd
       0.12737398 -0.031983454 0.004819477 -0.06161318
0001a0 5d 3b 82 3c 55 d2 2f be f6 df 18 bb 21 d3 48 3e
       0.015897447 -0.17170079 -0.002332685 0.1961179
0001b0 84 d6 f1 3d d4 99 d2 3d 9f 12 fe bd 66 ef d0 bd
       0.11808494 0.10283247 -0.124058954 -0.10201912
0001c0 ac c8 b6 bc 2f 67 9d 3d 9f 99 a3 3d 7c ff 06 3e
       -0.022312485 0.07685696 0.07988285 0.13183397
0001d0 2d 93 11 3e 9c de 49 3e bb 08 cc bd 6b 02 0d be
       0.142163 0.19713825 -0.09962603 -0.13770454
0001e0 4d c1 d0 bd 1b 45 65 bd 9c 9e d7 3d 04 6e a3 3c
       -0.10193119 -0.055974107 0.10528299 0.01994992
0001f0 90 fe 70 3d 67 8f 70 bd 26 6c 5c bd cd 89 88 3d
       0.05883652 -0.05873051 -0.053814076 0.066669084
000200 73 57 9b bc b6 ec 8a 3c 31 04 00 bd 57 77 12 3c
       -0.018962597 0.016958576 -0.031253997 0.008939586
000210 66 31 3f be 65 0b 48 bd 58 6c 66 bd 83 19 e6 bd
       -0.18671188 -0.04883899 -0.05625567 -0.11235335
000220 49 05 99 bd dd ed 21 3c f7 12 c5 bd 72 81 05 bd
       -0.07471711 0.009883371 -0.09622758 -0.03259415
000230 42 45 64 be 90 af 11 bd 8a 85 2b be ae 48 ef 3d
       -0.22292045 -0.03556782 -0.1675016 0.116837844
000240 bf 84 52 3c 2b 55 ad bd 61 69 93 bd 56 17 bc bd
       0.012849032 -0.0846351 -0.07197834 -0.091841385
000250 e4 b5 b8 3d fc c2 c2 3c bf 72 1a 3d 6c df 09 bd
       0.09019068 0.023774616 0.037707087 -0.033660337
000260 a9 0e 6e 3d d9 48 17 3e 93 8f da 3d ae 36 ab bd
       0.05811945 0.14773883 0.10671916 -0.08360039
000270 5f fe 9c 3d 75 4b 08 3d 85 db 61 3d 9f 7f e1 bd
       0.07665705 0.033275086 0.05514099 -0.1101067
000280 2c 2a b9 3c 22 59 a2 bd 25 24 9e bd 2c d2 5a 3e
       0.022603117 -0.07927157 -0.07721738 0.21369237
000290 60 ed 6f ba ab 77 0b be 3d e7 34 be 5d 13 05 bd
       -0.0009152498 -0.13619868 -0.17666335 -0.03248917
0002a0 85 1e 14 3d 8e d5 97 3e 80 15 2c 3d 7f c2 33 bd
       0.03616192 0.29655117 0.04201269 -0.043886658
0002b0 80 f9 59 bd be 30 dd 3d 96 24 03 3e ad b3 64 3e
       -0.053216457 0.108003125 0.12806925 0.22334166
0002c0 ca 16 15 be 30 75 1d 3e ea 61 13 be df dd 70 3e
       -0.14559475 0.15376735 -0.1439282 0.23522137
0002d0 68 1c e9 bd ea 92 aa bb 5e bc c2 3d ff f7 36 3d
       -0.11382371 -0.005205502 0.095085844 0.0446701
0002e0 02 49 39 3d 6e 3b 40 3e 49 5e 9c 3d f7 c9 2d bd
       0.04523564 0.1877267 0.07635171 -0.042428937
0002f0 52 a4 6b bd ab 93 63 3c 7c a8 00 bd 83 2a eb bc
       -0.057529755 0.013890187 -0.03141068 -0.028706795
000300 85 2a 9c 3e 80 0d 13 be 97 c3 7e be 08 74 b8 bb
       0.3050119 -0.14360619 -0.24879299 -0.0056290664
000310 a7 d6 fb bd 3d 7f f8 bb 4c 9a 0d bc 49 34 82 3d
       -0.12296801 -0.0075835274 -0.008642744 0.06357629
000320 a9 16 0a 3d 9f 42 ab bc 5b 14 26 3d e8 fa ad bd
       0.033713017 -0.02090579 0.040546756 -0.08495122
000330 39 73 2c 3e d8 e7 60 bd af 6d 17 3d 4b 96 06 be
       0.16840829 -0.054908603 0.036969837 -0.1314327
000340 88 de 12 be 65 48 35 bc f0 f1 09 be 40 bf fd bd
       -0.14342701 -0.0110646235 -0.13471198 -0.12389994
000350 7e 81 0e 3d 97 19 cc bd 49 30 f1 3d 81 fa 91 bd
       0.034791462 -0.099658184 0.11776788 -0.07127858
000360 56 04 74 be 3b bc a8 bd 5d cb 0e be 52 75 d5 bd
       -0.23829779 -0.08239027 -0.13944764 -0.10422768
000370 78 74 d7 3d c7 1c 5a bd 05 cf a8 3c 96 20 63 bd
       0.105202615 -0.0532501 0.020606527 -0.055451
000380 5c 09 12 be d8 98 35 be 4a 41 9c bc 5c 75 3b 3d
       -0.14261383 -0.17734087 -0.019074101 0.04576622
000390 08 e2 03 3b 8e e2 98 bd c1 36 ad bc ab 4a 80 bd
       0.0020123739 -0.07465087 -0.021144273 -0.06264242
0003a0 6d 63 21 3e 01 b8 79 be 06 ad 49 bd 3a 21 8c 3d
       0.15760584 -0.24386598 -0.049237274 0.06842275
0003b0 b6 56 61 3c 58 b5 6b 3d 68 ec d9 3d be d3 ea bc
       0.013753584 0.05754599 0.10640794 -0.02866542
0003c0 2b 7c 2a 3c 8a e5 3b 3e 30 92 de bd 7a 37 8e 3c
       0.0104055805 0.18349281 -0.10867727 0.017360438
0003d0 ec e6 e3 3d 26 a5 81 bc d6 44 7b be 2b 38 fb 3d
       0.11128029 -0.01582582 -0.24537978 0.122665726
0003e0 05 74 2d 3e 21 bb 91 3d d8 9e 5b bd ff 7b eb 3d
       0.16938789 0.0711577 -0.053618282 0.1149826
0003f0 df af 9c 3d 94 15 60 bd 70 8a e6 3c 4d c1 a8 bc
       0.07650732 -0.05470808 0.028142184 -0.020599985

fc.0.bias f4 [256]
000000 cc d7 bc 3d 73 98 1f 3e be 02 fa 3d 43 4f 8d 3d
       0.092208475 0.15585499 0.12207554 0.068998836
000010 32 45 b0 b9 45 19 8d 3d 96 67 b5 3d 4e 15 af 3d
       -0.0003362089 0.068895854 0.08857648 0.085489854
000020 34 d9 da 3d 5f 94 6f 3c 75 8b fe 3d 66 ee a9 3d
       0.106859595 0.014622777 0.12428943 0.08297424
000030 82 fd c4 3d d4 35 e5 3d d3 ec c2 3d c5 77 2f 3e
       0.09618665 0.111919075 0.09517827 0.17135532
000040 a8 43 1e 3c 75 d7 cc 3d e8 3b f4 3d be b4 d4 3d
       0.009659685 0.10002033 0.11925489 0.10386036
000050 3a f2 dc 3d 3d 30 ec 3d c3 0f bd 3d 36 05 cf 3d
       0.107883886 0.11532638 0.09231522 0.10108416
000060 65 41 d8 3d 63 69 19 3e 7a 82 ba 3d 57 ad 00 3e
       0.10559348 0.14981608 0.09106918 0.12566124
000070 1c 46 ca 3d 76 55 28 3e 2e f0 22 3d f1 fc 00 3e
       0.098766536 0.16438851 0.039779834 0.1259649
000080 75 37 4c 3d 1c ac fb 3d dc 30 1c 3e 2b a8 ed 3d
       0.049857575 0.12288687 0.15253013 0.11604341
000090 9f a4 55 3d 71 2a 09 3e 49 1a e3 bb 03 45 b4 3d
       0.052158948 0.13395096 -0.0069306237 0.088022254
0000a0 9d b0 e7 3d 4d 2b 10 3e 09 2f 0e 3e 47 c0 c4 3d
       0.11312983 0.14079018 0.1388513 0.096069865
0000b0 ec 9d e2 3d 25 53 3c 3e 29 9f d4 3d b3 bb a4 3d
       0.110652775 0.18391092 0.1038192 0.08043613
0000c0 9d 84 b3 3d fe 66 11 3e e4 f2 f7 3d d9 54 a6 3d
       0.08765528 0.14199445 0.121068746 0.08121652
0000d0 34 a0 a8 3d e2 e8 cb 3d 11 7b a0 3d a7 29 15 3e
       0.08233681 0.09956528 0.07835973 0.1456667
0000e0 94 8e 02 3e bd 00 a3 3d ad 8c 93 3d 72 b4 c0 3d
       0.12749702 0.07959125 0.07204566 0.09409417
0000f0 00 44 06 3e f3 13 01 3e 78 30 b6 3d f2 f4 28 3e
       0.13111877 0.12605266 0.088959634 0.16499689
000100 1f 1c b3 3d 11 c5 b5 3d ff b2 69 3d 81 2e 51 3d
       0.08745598 0.08875478 0.05705547 0.05106974
000110 f9 3a 10 3e b7 bd 93 3d 6d bd bb 3d 0f 7f e8 3d
       0.14084996 0.072139196 0.091669895 0.113523595
000120 e5 45 3f 3d 8f 5e dd 3d cf 8e 15 3d 40 c0 a0 3d
       0.046697516 0.10809051 0.036513146 0.07849169
000130 b7 de c4 3d 2d 27 4d 3d 8a 68 92 3d a8 e4 c5 3d
       0.09612792 0.05008619 0.071488455 0.09662753
000140 1b fd 5b 3d 48 90 f0 3d 52 c7 2e 3e 1a fc 88 3d
       0.053708177 0.117462695 0.17068222 0.066887096
000150 56 59 ec 3d f2 e9 8a 3d d3 6f 0b 3e fe 3a b8 3c
       0.11540477 0.06782903 0.13616876 0.022489067
000160 aa 55 2b 3d e7 15 cc 3d 44 7d bb 3d c2 d9 4c 3e
       0.041829742 0.09965115 0.09154752 0.20004943
000170 b4 cb 9a 3d 20 59 23 3e e7 6c c1 3d 46 3d eb 3d
       0.075583845 0.15951967 0.094445996 0.11486296
000180 1b 4a e8 3d 3d 96 0b 3d 85 17 12 3e a5 72 f4 3d
       0.113422595 0.034078825 0.14266784 0.11935929
000190 75 8e 71 3d 1a f0 a4 3c 58 37 f3 3d 6b 05 a8 3c
       0.05897375 0.02013402 0.1187579 0.020510396
0001a0 29 3a 13 3e 8e 5e 01 3e b6 bd 1d 3e 12 1d 9c 3d
       0.14377655 0.12633726 0.154044 0.07622732
0001b0 b6 4c 02 3e fb 36 a7 3d d1 d0 b8 3d 3e 3f 3b 3d
       0.12724575 0.081647836 0.090242036 0.04571461
0001c0 6d fb b7 3d a4 f4 b2 3d ff f4 82 3d 49 8c cb 3d
       0.089835025 0.08738068 0.063943855 0.09938867
0001d0 11 14 d1 3d 31 53 3b 3d 20 d2 aa 3d 43 c2 54 3d
       0.102089055 0.045733634 0.083408594 0.051943075
0001e0 b9 99 94 3d f6 36 66 3d 00 54 c9 3d 37 b5 84 3d
       0.07255883 0.05620476 0.09830475 0.064798765
0001f0 05 53 be 3d 19 18 b1 3c 58 f3 c8 3d fd eb 76 3d
       0.092931785 0.021617936 0.09812039 0.06028365
000200 e0 cc e2 3d 9f 69 84 3d e8 12 ec 3d c6 22 1c 3e
       0.11074233 0.06465458 0.115270436 0.1524764
000210 c5 90 d6 3d ed f8 db 3d 92 6c 97 3c 9e 83 cb 3d
       0.10476831 0.10740838 0.018484388 0.09937213
000220 db 6b 88 3c 78 20 5d 3d 90 12 b2 3d d8 c5 c2 3d
       0.016652992 0.053986043 0.08694947 0.09510392
000230 18 0c 96 3d 2c 85 66 3d 4e c6 d9 3d b2 b6 ad 3d
       0.073265254 0.056279346 0.10633527 0.08482112
000240 06 da 16 3e eb 32 9b 3d cf 3b 9d 3d 57 56 f3 3d
       0.14731607 0.07578071 0.07677423 0.118817024
000250 a9 c4 04 3e 02 3d c4 3d 8d 0c 0a 3d a1 83 d5 3c
       0.12965645 0.09581949 0.033703376 0.026063742
000260 0c e1 80 3d 82 2e c3 3c 31 a1 82 3d ab c9 d7 3d
       0.06292924 0.023825888 0.06378401 0.10536512
000270 91 0e 77 3d 10 cc 0c 3c 49 b2 df 3d 08 12 18 3e
       0.060316626 0.008593574 0.10922677 0.14850628
000280 0d 1a cf 3d e9 55 a4 3d 49 72 c1 3d 02 25 98 3d
       0.10112391 0.080241986 0.09445626 0.07428934
000290 33 b2 bd 3d 97 71 d1 3d a0 04 c8 3d 75 50 9b 3d
       0.092625044 0.10226744 0.09766507 0.07583705
0002a0 ae 5d 07 3e 7b 01 e0 3d 5b 52 cf 3d 3c 9d 47 3d
       0.1321933 0.109377824 0.1012313 0.048733935
0002b0 30 61 eb 3d ee 09 b8 3d 99 b6 e5 3d a4 d7 cc 3d
       0.114931464 0.08986269 0.11216468 0.10002068
0002c0 a9 46 aa 3d 5a 1c 82 3d fc 9e c1 3c 1e a5 cc 3d
       0.083142586 0.06353064 0.02363538 0.09992431
0002d0 42 16 d5 3d fc 17 9f 3d 8b 26 14 3e 5d ee ea 3d
       0.10404636 0.077682465 0.14467828 0.114712454
0002e0 7a 58 23 3e ac 7d f1 3d 1f 4d 47 bd 93 41 d0 3d
       0.1595172 0.11791548 -0.048657533 0.10168757
0002f0 6f a7 52 3d 97 38 0e 3e f9 31 f3 3d df 7b a8 3d
       0.05142921 0.13888775 0.11874766 0.082267515
000300 39 35 d9 3d d2 96 0f 3d e0 2f c3 3d 3f af fa 3d
       0.106058545 0.035055943 0.09530616 0.12240457
000310 09 64 af 3d 2f 27 fe 3d 5f 66 89 3d 4e 29 9d 3d
       0.08564002 0.124098174 0.06708979 0.07673894
000320 d0 95 9a 3d 7c b0 e1 3d b8 4d 8b 3d 68 ea a6 3d
       0.07548106 0.1101999 0.06801933 0.08150178
000330 a1 bc 97 3d 93 76 35 3e 5d 92 2c 3d 35 f0 12 3e
       0.07409025 0.17721014 0.04213177 0.14349444
000340 70 82 a8 3d 2b 5c a0 3d 04 4a 51 3e 95 eb cc 3d
       0.08228004 0.0783008 0.20438391 0.10005871
000350 bf 4d 95 3d 92 e5 fa 3d 58 aa 15 3d fe 84 d2 3d
       0.072902195 0.12250818 0.036539406 0.102792725
000360 e4 55 d0 3d a6 51 03 3e e6 ec c3 3d a9 a8 0a 3e
       0.10172632 0.12824115 0.09566669 0.13540901
000370 1a dc ac 3d 3f 12 bc 3d 1e af 8f 3d b4 b7 d1 3d
       0.084404185 0.09183168 0.07015823 0.10240117
000380 30 36 2e 3e 9e b8 31 3d 6e 09 1d 3e 87 71 bc 3d
       0.17012858 0.043388955 0.15335628 0.09201341
000390 4e 08 20 3d 9b 1e ed 3d 84 a8 02 3e 3c b9 eb 3d
       0.03907042 0.11578103 0.12759596 0.1150994
0003a0 52 d0 6c 3d 68 01 26 bb 56 45 a7 3d 40 55 b4 3d
       0.057815857 -0.0025330428 0.08167522 0.08805323
0003b0 be d2 49 3d 54 fd c6 3d cf a0 16 3e e4 1f fe 3d
       0.049273245 0.09716287 0.14709781 0.124084264
0003c0 27 e0 dc 3d 8e ad 94 3d 11 4d 9a 3d c9 5b eb 3d
       0.10784941 0.072596654 0.075342305 0.11492116
0003d0 55 ca 70 bd a9 1e 43 3e b0 13 a7 3d 33 44 5c 3e
       -0.05878671 0.19054665 0.08158052 0.21510391
0003e0 b4 3f 81 3d b0 49 79 3d 20 ca b9 3d 9c 20 03 3e
       0.063109785 0.06086129 0.090717554 0.12805408
0003f0 95 22 e0 3c 83 a9 60 3e d2 38 fd 3d 0e 57 dc 3d
       0.02736024 0.21939664 0.12364353 0.10758792

fc.3.weight f4 [23, 256]
000000 fb 5f 2e be 3b 1c 8f be 5d e9 97 be dd 08 81 be
       -0.17028801 -0.27951226 -0.2967023 -0.25202075
000010 81 07 7f be 3a 01 c9 bd a4 57 23 3e 4f 13 db bd
       -0.24905206 -0.09814687 0.15951401 -0.10697042
000020 a6 5a e5 3d 97 d3 36 3d 80 86 f9 3c ac 03 c4 bd
       0.111989304 0.04463538 0.030459642 -0.09571013
000030 61 e8 f3 3d 8c a7 0a 3e d8 12 53 be 39 09 a8 3d
       0.11909557 0.13540477 -0.20612657 0.08204884
000040 45 bf 5d be 29 c1 d8 3d 0d 2e 0c 3e de b4 7e be
       -0.21654995 0.105837174 0.13689442 -0.24873683
000050 d5 41 de 3d 79 be fe 3d 86 9e 80 be a1 2b 08 3e
       0.108524 0.124386735 -0.25120944 0.13297893
000060 d4 4e 67 3c ac 0a 3f 3e a6 da 03 3d 0f 4c 89 3d
       0.014117915 0.18656415 0.03219094 0.0670396
000070 09 cf 74 bd 17 4b e0 3d 20 45 a5 be 8a 8b a1 3d
       -0.059767757 0.10951822 -0.322793 0.07887943
000080 63 7e 4f be 97 b5 d0 be 5b 97 08 3e ea ee 0a 3e
       -0.20263056 -0.40763542 0.13338988 0.13567701
000090 80 03 5b be 7f 36 29 3d e3 a5 31 be 57 55 ba be
       -0.21388054 0.041311737 -0.17348437 -0.36393234
0000a0 90 ab 1a bc 36 34 1e be b6 62 31 3e c3 59 69 be
       -0.009440318 -0.15449604 0.17322811 -0.22788148
0000b0 31 34 d4 3d 47 c5 b4 3d b3 ba 73 be f3 58 2e 3e
       0.10361517 0.0882669 -0.23801689 0.17026119
0000c0 0d e1 45 3d 12 fa 08 be 2b 73 0c 3e 55 14 3f be
       0.04831033 -0.13376644 0.13715808 -0.186601
0000d0 2b 3c be be 83 4a 27 3e 7e 6c c7 3c 54 e1 0d 3e
       -0.3715528 0.16337018 0.024343725 0.13855487
0000e0 d8 8d 03 3e 8d f2 1b 3d e0 6e cf bd 6c 2b 0a 3e
       0.12847078 0.03807311 -0.101285696 0.13493127
0000f0 e5 1c cf 3d c8 f9 f9 bc f7 9d 3c be 52 58 18 3e
       0.10112933 -0.030514613 -0.18419634 0.14877442
000100 ba 5e 9f 3d b4 64 13 be 04 c7 8c be d5 0b 59 be
       0.077817395 -0.14393884 -0.27495587 -0.2119592
000110 ba 91 7d be 4b 81 82 be 40 d5 89 be 51 49 1d bc
       -0.24762622 -0.25489268 -0.2692051 -0.0095999995
000120 6a 3f 17 bc ec fc 65 3e f7 1e 99 be b8 51 27 3e
       -0.009231428 0.22459763 -0.29906437 0.16339767
000130 e9 ca 7e be 9f f7 9f 3d 3f 0e e0 bc 8b bc 1d 3e
       -0.24882092 0.07810902 -0.027350543 0.15403955
000140 39 51 65 be 50 28 af bd db ae 4c 3e 7e f1 15 3e
       -0.22394265 -0.08552611 0.19988577 0.14642903
000150 73 d5 be bd 2b e8 ca 3d 95 f2 90 be 84 26 d5 be
       -0.09318056 0.09907564 -0.28310075 -0.41630948
000160 78 ed 7b be b8 41 91 3d c2 e4 08 3e e3 75 94 3d
       -0.24602306 0.07092613 0.13368514 0.072490476
000170 dd ee 92 be 3e 3b 81 be ae cf ca bd 83 9e 49 be
       -0.28697863 -0.2524051 -0.09902893 -0.19689374
000180 2c ea ad 3d ce 8d c9 bd 91 df 8d 3c b7 0c b0 bd
       0.0849193 -0.098415 0.017318519 -0.08596175
000190 ae 45 3b 3e e9 d1 b3 be 5d b7 48 be 5d 91 9b be
       0.182883 -0.35121086 -0.19601198 -0.3038434
0001a0 0f 09 00 bd 29 8e 01 3e 86 4d d2 3d ec b0 81 be
       -0.03125864 0.12651886 0.10268693 -0.25330293
0001b0 13 66 e1 bd 29 3d 07 3e 21 5f bc 3d 2d 33 43 be
       -0.11005797 0.13206924 0.09197832 -0.19062491
0001c0 55 91 a3 be ca c6 b8 3d a4 e7 e8 3c 53 76 2d be
       -0.31946817 0.09022291 0.028430767 -0.16939668
0001d0 75 3a 94 be 4e f6 c7 3d 92 2b 46 bd 54 e6 95 3d
       -0.2895085 0.09763776 -0.048381396 0.07319322
0001e0 7f 29 94 be a6 f1 83 be b5 6f 8f be fb 84 c1 bd
       -0.2893791 -0.257703 -0.28014913 -0.09449192
0001f0 46 ee b2 be b5 17 8a bd 2d f7 4e 3e 4c 2a b8 be
       -0.34947413 -0.06742803 0.20211478 -0.3596977
000200 aa 00 1f 3e 29 a6 2d be 94 cb d0 be 15 51 23 3e
       0.15527597 -0.16957916 -0.40780318 0.15948899
000210 86 90 03 3e c5 1e 9f be 3e df a7 bd 31 33 b0 3d
       0.128481 -0.31078163 -0.08196877 0.08603514
000220 74 fc 4a 3e 82 3d 99 be 12 87 ac be 72 ef 88 3d
       0.19822866 -0.2992974 -0.336968 0.066862956
000230 75 06 15 be 8e 67 a1 be 70 84 95 3b ce 41 95 be
       -0.14553244 -0.31524318 0.004562907 -0.29151767
000240 ea 52 3e bd 14 1f 6d bd 24 dc df bd 1a f1 9c 3c
       -0.04646579 -0.057890967 -0.1093066 0.019157935
000250 23 a9 c2 3d 6c f8 a3 be b8 a4 4f 3d 3c ab 8e be
       0.095049165 -0.32025468 0.050694197 -0.27865016
000260 55 2f 30 be 5a 2c 52 be 90 44 11 3e de 2d ac 3d
       -0.17205556 -0.20524731 0.14186311 0.08407186
000270 26 25 07 3e 5c 5f bf be 5e 59 69 be d5 09 95 bd
       0.13197765 -0.3737744 -0.22787997 -0.07277266
000280 19 67 43 3e 28 e3 4e be 86 8f 39 be e2 d4 af 3d
       0.19082297 -0.2020384 -0.18121156 0.08585526
000290 2b 59 a7 be 96 0f 1c 3e ad a2 4a 3d e9 88 08 3e
       -0.32685217 0.1524032 0.049471546 0.13333477
0002a0 db 5c bb 3d 61 f5 ad be ef d1 5a 3e 0f 7c cc bd
       0.0914857 -0.33976272 0.21369146 -0.099846
0002b0 9f 6c ad 3d 0d 00 4d bd 4f 53 9f bd f9 9a d9 be
       0.084679835 -0.050048877 -0.07779562 -0.42501047
0002c0 6b 62 b0 be 60 fc 13 3e ab 80 40 3d b5 8f 37 be
       -0.34450087 0.14451742 0.046997707 -0.17925914
0002d0 0d 29 64 3d dc 1b 4b be d1 5f 4a bd 2f 40 8e bd
       0.05570321 -0.19834846 -0.049407784 -0.06945836
0002e0 de 27 0e 3d f2 de 88 3d 04 fe 2e bb df 58 b7 3d
       0.03470599 0.066831484 -0.0026701698 0.08952498
0002f0 da 4d 0c 3e a8 f1 16 3e 72 14 21 3e 3d 38 fc 3d
       0.13701573 0.14740622 0.15730456 0.12315414
000300 43 30 2e bd 0a a6 d3 be 53 7a 21 be 1c 8e 0e 3e
       -0.042526495 -0.41337615 -0.15769319 0.13921398
000310 28 0b db 3d 0c ed 94 bd df 6a ab be 1e 18 ab be
       0.10695487 -0.072717756 -0.33479974 -0.33416837
000320 e0 a9 aa be ea 89 94 be c3 21 a9 be fa b2 54 be
       -0.3333273 -0.2901147 -0.3303357 -0.20771399
000330 f0 1f ff 3d 6f 30 6a bd 6d 7e cc bd 43 29 9e be
       0.124572635 -0.057175096 -0.09985051 -0.30890855
000340 1e 5a d5 bd 72 18 c4 be 37 e5 cc 3d bb fa e1 3d
       -0.10417579 -0.382999 0.10004657 0.11034151
000350 e5 91 dc 3d 8a f3 22 be 44 0f c9 bd d5 71 eb bd
       0.10770015 -0.15913215 -0.09817365 -0.11496321
000360 87 aa f2 bd af ca 43 be d1 81 80 bd e6 a0 9d be
       -0.11848932 -0.19120286 -0.062747605 -0.30786818
000370 eb a4 1c be 2f 98 16 3c 88 2a fe 3d ca fc 8f be
       -0.15297286 0.009191557 0.12410456 -0.2812255
000380 e6 bb c5 bd 24 76 bd be 73 6c bf 3d f1 46 5a bd
       -0.096549794 -0.37004197 0.09346857 -0.05329031
000390 8a 09 74 be b1 e9 55 be fd 13 c0 3c 61 79 0e 3e
       -0.23831764 -0.20889927 0.023447031 0.1391349
0003a0 22 ff 69 be db 80 ea be ba f1 ba be 24 b8 de 3d
       -0.22851232 -0.45801434 -0.36512548 0.10874966
0003b0 e7 63 6e 3d c1 11 18 3e 09 7e 43 3e d1 3a 8b be
       0.058200743 0.14850523 0.19091047 -0.2719331
0003c0 af 17 96 3d ec eb 94 be 14 b7 37 3e 4b bb 8e be
       0.07328736 -0.29086244 0.17940933 -0.27877268
0003d0 d8 54 3b bd 1a b8 3c 3e 67 2f 99 bd a8 7b c5 bd
       -0.04573521 0.18429604 -0.074797444 -0.09642726
0003e0 41 95 02 bf a2 b6 26 bd e5 c8 26 3e b1 7e 1c 3c
       -0.51008993 -0.040701516 0.16287573 0.00955169
0003f0 d2 1c c3 bd 35 51 61 bd 8b c1 c5 be c3 f9 d9 3d
       -0.095269814 -0.055009086 -0.38624224 0.106433414

fc.3.bias f4 [23]
000000 18 3c 93 bc 4f 07 87 3d 77 05 a9 bd e0 ae 92 3c
       -0.01797299 0.06593191 -0.082529955 0.017905653
000010 a5 06 20 bd 30 90 62 bd 4c 69 e1 3c 40 3e 19 3c
       -0.039068837 -0.05531329 0.02751603 0.00935322
000020 2f f1 98 bd 67 14 a9 bd 77 3c b2 bd 0b c1 5f bc
       -0.07467877 -0.082558446 -0.08702939 -0.013656865
000030 3c 8f ce 3b 14 70 5f 3d 76 f5 29 bd bd 6c 19 bd
       0.006303696 0.054550245 -0.041493855 -0.037457217
000040 66 d1 54 bc 0d 7a 62 3d d7 8b a5 3d 5a f6 09 bd
       -0.012989378 0.055292178 0.08083313 -0.033682205
000050 75 ec 22 3d 4c 48 84 3d 6d 74 96 bc
       0.039776284 0.06459102 -0.018366063
