audio_cnn_model.pth (torch, 551120 bytes, 4 tensors)

fc.0.weight f4 [256, 512]
-0.15515882 0.25110736 -0.21101229 -0.039106168 0.017897006 0.07257675 0.09221749 0.0034955298
0.24413556 -0.007076687 0.28915536 0.046986047 -0.07942131 0.22435008 -0.028024206 0.08285257
-0.0862078 0.0959214 -0.062274035 0.013199698 0.017535567 0.053306643 0.14857493 0.12637226
-0.13669038 -0.015593333 0.12994027 -0.023756275 0.14981735 0.17652294 0.0005442768 0.13628025
0.11335789 0.18647489 0.13717751 0.23840639 0.18695137 -0.11666814 0.1714513 0.08917422
-0.043288145 0.073312595 0.01124294 0.092899136 0.008709111 0.035300784 0.06351721 -0.029810872
0.105273284 -0.42597714 0.15645981 -0.088393755 0.19669667 -0.13211432 -0.078270026 0.06449051
0.12997085 -0.23167606 -0.18196477 -0.07445057 0.08201886 -0.0905235 0.056145977 -0.11096764
-0.10549068 0.024072386 -0.026365077 -0.0685108 0.11662076 0.16935128 0.20006485 0.14918053
0.122578785 0.30381325 -0.10591877 -0.053700183 0.21984848 -0.14690235 0.066608995 -0.05475441
0.24943992 -0.23197888 -0.11560337 0.10897034 0.0006167844 -0.15222353 -0.19818984 0.068280995
-0.084434435 -0.07057825 -0.08784595 0.1609102 0.02801875 -0.26486298 0.119134516 -0.16049458
-0.14695644 -0.088006884 0.17314783 -0.13281074 -0.084154144 0.32392573 -0.16005166 0.05200497
-0.04658518 -0.13558182 -0.024700982 0.40090963 -0.1999584 0.01159112 0.2738187 -0.074556574
-0.052704524 -0.04640227 -0.07221415 -0.2824269 0.19163145 -0.32306683 -0.31453368 0.27173492
-0.15680183 0.21516575 -0.15242592 0.038680673 -0.15378611 0.07671 0.07071612 0.06861416
-0.12920986 -0.12231773 -0.061617706 -0.049374394 -0.052667752 -0.0015073651 0.24413337 0.048401378
0.011327559 0.12472931 -0.11000849 -0.28109983 -0.3952849 0.10431643 0.06717867 0.06597697
-0.25536907 -0.2246356 0.037592277 0.1867112 -0.04098634 -0.021901496 0.14030062 0.05914691
0.09194995 0.18053798 0.088678166 0.15014806 0.16862966 0.03331776 -0.19226888 0.12357819
-0.20273091 -0.05377987 -0.13862267 -0.189701 0.15660797 -0.052959967 -0.055875268 0.009051943
-0.084180914 -0.37226817 -0.16260874 -0.049886957 -0.24508007 0.015771668 -0.022782408 -0.11533495
0.22395279 -0.25289062 -0.06869595 0.02895165 -0.16130215 -0.12087246 0.2786662 0.005168763
0.10513134 0.007880839 -0.27717477 0.3369893 0.07850262 0.185727 0.11441787 0.0861419
-0.48649248 0.25409663 0.13013145 0.007540318 0.10464203 0.065739945 -0.0933476 0.008154193
0.021504272 0.0165199 0.21475914 0.0837217 -0.24272998 -0.040823355 0.0019162653 -0.14581293
-0.0022996776 -0.075354084 -0.083662204 -0.06093594 0.16369519 -0.13437288 -0.25087282 -0.049843073
0.03007915 -0.10626494 0.10631296 -0.1756949 -0.3027952 -0.16488466 -0.0144879455 -0.16388796
0.021856256 -0.21712902 -0.11872994 -0.11903555 0.0378191 -0.022257932 0.2931057 0.24209252
0.22748718 0.14054026 0.18506463 -0.04812579 -0.06931298 -0.1433072 -0.058149226 -0.24070585
0.09113788 0.11455785 -0.114813 -0.19819854 0.0065517267 0.020697782 0.22757153 0.12416791
-0.013152731 -0.14646795 0.05999501 -0.11348921 -0.24485935 -0.14883196 -0.10235338 -0.07729781
00000000: f4e1 1ebe 2591 803e 9b13 58be ca2d 20bd
00000010: be9c 923c 1ea3 943d 86dc bc3d 4215 653b
00000020: acfe 793e 8ee3 e7bb 2c0c 943e 7174 403d
00000030: a4a7 a2bd 07bc 653e 0593 e5bc 9cae a93d
00000040: b78d b0bd 7072 c43d 0f13 7fbd 8c43 583c
00000050: c0a6 8f3c 1158 5a3d 0724 183e bb67 013e
00000060: 90f8 0bbe 2e7b 7fbc 100f 053e 859c c2bc
00000070: b869 193e 6ec2 343e ccad 0e3a 0d8d 0b3e
00000080: 2e28 e83d 46f3 3e3e 4378 0c3e ce20 743e
00000090: 2e70 3f3e b5ef eebd ee90 2f3e f9a0 b63d
000000a0: e94e 31bd ea24 963d 4f34 383c e741 be3d
000000b0: a9b0 0e3c 8e97 103d 5015 823d ee35 f4bc
000000c0: 8599 d73d ad19 dabe 0037 203e c907 b5bd
000000d0: da6a 493e fa48 07be 094c a0bd 9a13 843d
000000e0: 1417 053e 7d3c 6dbe f954 3abe 8a79 98bd
000000f0: 81f9 a73d 6364 b9bd 53f9 653d 0143 e3bd
00000100: 7f0b d8bd 7433 c53c 93fb d7bc 644f 8cbd
00000110: ddd6 ee3d 6c6a 2d3e cddd 4c3e c8c2 183e
00000120: 960a fb3d 698d 9b3e f1eb d8bd b9f4 5bbd
00000130: f61f 613e 926d 16be 4c6a 883d 2946 60bd
00000140: 2e6d 7f3e df8b 6dbe 76c1 ecbd d72b df3d
00000150: b3af 213a 7ce0 1bbe 47f2 4abe e8d6 8b3d
00000160: f6eb acbd 548b 90bd 94e8 b3bd a5c5 243e
00000170: 9487 e53c 1f9c 87be ccfc f33d b158 24be
00000180: c07b 16be f43c b4bd aa4d 313e 8aff 07be
00000190: 0259 acbd 98d9 a53e 95e4 23be 2a03 553d
000001a0: 1ad0 3ebd f6d5 0abe b759 cabc 0744 cd3e
000001b0: e5c1 4cbe aee8 3d3c f731 8c3e 1eb1 98bd
000001c0: b3e0 57bd 4f10 3ebd 03e5 93bd 429a 90be
000001d0: 093b 443e 0469 a5be 8f0a a1be d720 8b3e
000001e0: a990 20be 6954 5c3e 8a15 1cbe a06f 1e3d
000001f0: 1b7a 1dbe 221a 9d3d 9dd3 903d 9585 8c3d
00000200: 974f 04be b881 fabd d962 7cbd ce3c 4abd
00000210: 24ba 57bd c892 c5ba 19fe 793e 8640 463d
00000220: 3a97 393c 1572 ff3d 224c e1bd 51ec 8fbe
00000230: c862 cabe daa3 d53d f894 893d ef1e 873d
00000240: bcbf 82be e006 66be 5cfa 193d 3931 3f3e
00000250: 4be1 27bd c46a b3bc f7aa 0f3e 0844 723d
00000260: 4150 bc3d f3de 383e e69c b53d 6ac0 193e
00000270: 41ad 2c3e 3478 083d 22e2 44be 9016 fd3d
00000280: b198 4fbe 4848 5cbd 1af3 0dbe fb40 42be
00000290: d75d 203e 8dec 58bd 77dd 64bd 9a4e 143c
000002a0: 0b67 acbd ef99 bebe e882 26be 4456 4cbd
000002b0: 45f6 7abe 9633 813c 2ca2 babc bb34 ecbd
000002c0: e153 653e e17a 81be 76b0 8cbd 032c ed3c
000002d0: 642c 25be fb8b f7bd 56ad 8e3e ba5e a93b
000002e0: 1a4f d73d a21e 013c dae9 8dbe dd89 ac3e
000002f0: fbc5 a03d 382f 3e3e eb53 ea3d 2a6b b03d
00000300: 8b15 f9be f418 823e 2e41 053e c614 f73b
00000310: 904e d63d aaa2 863d 072d bfbd 2a99 053c
00000320: ba29 b03c be54 873c d2e9 5b3e 4876 ab3d
00000330: 358e 78be 6436 27bd 322b fb3a fc4f 15be
00000340: 30b6 16bb 3e53 9abd 1757 abbd f797 79bd
00000350: b69f 273e 0b99 09be 6772 80be 4028 4cbd
00000360: 8d68 f63c 6fa1 d9bd 9cba d93d 5de9 33be
00000370: f907 9bbe 86d7 28be d95e 6dbc 3fd2 27be
00000380: e40b b33c 1257 5ebe af28 f3bd e9c8 f3bd
00000390: 33e8 1a3d 4456 b6bc f311 963e 1ae7 773e
000003a0: 66f2 683e c9e9 0f3e 9581 3d3e 8c1f 45bd
000003b0: f7f3 8dbd 1fbf 12be e22d 6ebd 987b 76be
000003c0: 7fa6 ba3d 4e9d ea3d 1423 ebbd 8ff4 4abe
000003d0: deaf d63b 658e a93c 8308 693e bf4b fe3d
000003e0: 8d7e 57bc b2fb 15be 54bd 753d 086d e8bd
000003f0: 69bc 7abe 6867 18be a69e d1bd 504e 9ebd

fc.0.bias f4 [256]
0.064429976 0.09992117 0.07325535 0.027683396 0.0631705 0.0465135 0.06462237 0.18781587
0.0741674 0.021426994 0.15323938 0.10393988 0.18204762 0.06278498 0.06271909 0.08649193
0.072237976 0.026940575 -0.028560257 0.06234632 0.08784137 -0.00056494924 0.1442225 0.05640693
-0.0033962461 0.049528636 0.13177012 0.082376674 0.066052355 0.038841445 -0.013680164 0.06843213
0.13778062 0.08703923 0.0940775 0.0781174 0.074678645 0.054987796 0.115307264 0.059704553
0.107877314 0.12601376 0.08325741 0.016968988 0.05032904 0.0033622684 -0.019105596 0.0036918004
0.14425299 0.06587996 0.045370806 0.08023792 0.032411944 0.0612497 0.08572249 0.06420824
0.06396645 0.058633234 0.06912384 0.045316495 0.057401624 0.12643966 0.12294016 0.12464095
0.017975809 0.0028733874 0.06742599 0.06899206 0.11396551 0.115101375 0.09754878 0.024344822
0.05813923 0.029389242 0.101266146 0.11139565 0.03170111 0.19354802 0.11891978 0.094917245
0.081917405 0.049208622 0.10282801 0.16293144 0.12683316 0.06649505 0.07770899 0.14377858
0.16787577 0.14192079 0.061870024 0.035775904 0.007229657 0.1624271 -0.004296745 0.11968911
0.054694843 0.07230322 0.054026816 -0.015538916 0.014851056 0.0048500285 -0.09437557 0.14085594
0.026108554 0.04119023 0.054910026 0.034763567 0.06943594 0.066961095 0.061271362 0.14451972
0.03911656 -0.010038935 0.16343315 0.045665044 0.06340884 -0.033422064 0.10167235 0.08387186
0.13508005 0.113076866 0.046277024 0.04253809 0.047983274 0.11508266 0.015122115 0.054061852
0.02791086 -0.052276522 0.051646754 0.11356035 0.10344284 0.045304354 0.13851504 0.05271326
0.012386907 0.054828294 0.043520756 0.073960185 0.035550285 0.053752262 0.17063445 0.14794618
-0.027521944 0.10830765 0.07646855 0.048376404 0.07368823 0.067372866 0.07200055 0.08416851
0.04733209 0.06402062 0.056158714 0.12312928 0.081728175 0.05850183 0.028755067 0.10281396
0.10849451 0.02682894 0.012842903 0.123385236 0.07539011 0.095022835 0.13467152 0.10581006
0.09918686 0.025037227 0.061643902 0.05734767 0.115572624 0.15157 0.04883603 0.053859513
0.08627488 0.022706427 0.047278278 0.0038311232 0.06253157 0.040320594 0.08005407 0.031985987
0.15577415 0.038558334 0.012850652 0.0065536983 0.017527385 0.09453113 0.046884898 0.13438258
-0.04575188 0.13264175 0.06109894 0.090909 0.013394829 0.046334483 0.096729875 0.038429216
0.061844338 0.13419683 0.054909423 0.040518228 0.030493168 0.08159116 -0.05856967 -0.008800233
0.068151124 0.04698271 0.11100679 0.08352375 0.07298932 0.0835637 0.20581582 0.07685479
0.09845543 0.015914798 0.12069134 0.026220374 0.05572207 0.05509045 0.15816402 -0.022335071
0.059764218 0.11818952 0.09429038 -0.0024137842 0.08306681 0.037486643 0.07533171 0.0066867336
0.08157109 -0.017747488 0.010637712 0.056273103 0.071425065 0.02540628 0.08174569 0.18242171
0.11130041 0.042658076 0.05767242 0.12986527 0.030249223 0.05257093 0.04088972 0.18798563
0.058253165 0.035309434 0.095023446 0.11721221 -0.022960322 -0.039744772 0.028142393 -0.013645847
00000000: ddf3 833d 78a3 cc3d e706 963d 4ac8 e23c
00000010: 895f 813d f184 3e3d bc58 843d ce52 403e
00000020: 14e5 973d aa87 af3c c9ea 1c3e 6fde d43d
00000030: b16a 3a3e 6995 803d de72 803d ae22 b13d
00000040: 81f1 933d 7bb2 dc3c 33f7 e9bc db5e 7f3d
00000050: 2de6 b33d 1a19 14ba 10af 133e f40a 673d
00000060: 8e93 5ebb 8ade 4a3d bfee 063e 1ab5 a83d
00000070: 7546 873d 3518 1f3d c422 60bc 2526 8c3d
00000080: 5d16 0d3e a041 b23d b4ab c03d 04fc 9f3d
00000090: 1ef1 983d e23a 613d 3726 ec3d c38c 743d
000000a0: c8ee dc3d c009 013e dc82 aa3d 8c02 8b3c
000000b0: d325 4e3d 8159 5c3b 5783 9cbc 22f2 713b
000000c0: 0eb7 133e 13ec 863d bdd6 393d c753 a43d
000000d0: 63c2 043d f7e0 7a3d 468f af3d 9c7f 833d
000000e0: d800 833d 6729 703d cd90 8d3d ca9d 393d
000000f0: f71d 6b3d 6679 013e 0dc8 fb3d c143 ff3d
00000100: 0142 933c 714f 3c3b a316 8a3d b64b 8d3d
00000110: c066 e93d 45ba eb3d a8c7 c73d cb6e c73c
00000120: 6723 6e3d b5c1 f03c a064 cf3d 6723 e43d
00000130: 06d9 013d 7431 463e 378c f33d f963 c23d
00000140: 50c4 a73d fb8e 493d 7e97 d23d 80d7 263e
00000150: 8de0 013e 8f2e 883d e425 9f3d b13a 133e
00000160: a0e7 2b3e af53 113e 6c6b 7d3d c189 123d
00000170: c2e6 ec3b 4a53 263e b6cb 8cbb 901f f53d
00000180: b307 603d b613 943d 394b 5d3d f096 7ebc
00000190: d851 733c fdec 9e3b fb47 c1bd 8a3c 103e
000001a0: 9be1 d53c 16b7 283d 56e9 603d 3e64 0e3d
000001b0: 6e34 8e3d e622 893d aef7 7a3d fafc 133e
000001c0: b038 203d 587a 24bc 055b 273e 450b 3b3d
000001d0: 7edc 813d 93e5 08bd 9839 d03d 02c5 ab3d
000001e0: 6d52 0a3e d894 e73d fa8c 3d3d 6c3c 2e3d
000001f0: 1c8a 443d 75b0 eb3d bfc2 773c f66f 5d3d
00000200: 51a5 e43c e81f 56bd 8c8b 533d 5492 e83d
00000210: d7d9 d33d 0f91 393d e3d6 0d3e dce9 573d
00000220: 74f2 4a3c a293 603d d242 323d 7078 973d
00000230: 2d9d 113d 552b 5c3d ccba 2e3e 347f 173e
00000240: b375 e1bc 67d0 dd3d 8b9b 9c3d 5626 463d
00000250: dbe9 963d c9fa 893d 0675 933d 8a60 ac3d
00000260: 4bdf 413d 3e1d 833d ae06 663d 342b fc3d
00000270: 1a61 a73d 9d9f 6f3d bf8f eb3c 2090 d23d
00000280: 5f32 de3d 5dc8 db3c 0a6b 523c 66b1 fc3d
00000290: 2166 9a3d 559b c23d 55e7 093e f2b2 d83d
000002a0: 7b22 cb3d df1a cd3c 517e 7c3d 64e5 6a3d
000002b0: 57b1 ec3d 2b35 1b3e 4a08 483d cb9b 5c3d
000002c0: e2b0 b03d d402 ba3c dea6 413d 9513 7b3b
000002d0: 8d10 803d 3527 253d 63f3 a33d bd03 033d
000002e0: 4283 1f3e 58ef 1d3d 8b8b 523c 68c0 d63b
000002f0: 9795 8f3c 8999 c13d 610a 403d 969b 093e
00000300: 5366 3bbd 3dd3 073e e242 7a3d 7f2e ba3d
00000310: fc75 5b3c 3ac9 3d3d 501a c63d f467 1d3d
00000320: 7d50 7d3d e56a 093e b4e8 603d 71f6 253d
00000330: cfcc f93c 4419 a73d c0e6 6fbd da2e 10bc
00000340: d192 8b3d f170 403d 8757 e33d 800e ab3d
00000350: 6d7b 953d 7223 ab3d 62c1 523e 0b66 9d3d
00000360: 00a3 c93d c05f 823c 052d f73d 1ccc d63c
00000370: d33c 643d 86a6 613d c0f5 213e 0af8 b6bc
00000380: 53cb 743d 590d f23d 511b c13d 9430 1ebb
00000390: ef1e aa3d 988b 193d 8347 9a3d 631c db3b
000003a0: be0e a73d 2e63 91bc cc49 2e3c a07e 663d
000003b0: 4e47 923d d520 d03c 496a a73d c2cc 3a3e
000003c0: 78f1 e33d 3cba 2e3d ea39 6c3d 67fb 043e
000003d0: 38cd f73c 9e54 573d fb7b 273d 4e7f 403e
000003e0: df9a 6e3d a0a0 103d a79b c23d f50c f03d
000003f0: 4917 bcbc 6acb 22bd e08a e63c d592 5fbc

fc.3.weight f4 [23, 256]
0.20041339 0.12236683 0.12963772 0.12433896 -0.008498158 -0.5169724 0.04115065 0.2192097
-0.330419 -0.47851202 0.06734404 -0.47989342 0.024475036 0.024916612 -0.15769312 0.2494121
0.20675744 -0.5415912 0.011642652 0.11948211 -0.57254195 0.13564909 -0.34922025 -0.49164417
0.14970993 -0.036124866 0.10022406 -0.018460503 0.036681216 -0.00042640226 -0.7645022 -0.42566612
-0.27258307 -0.21421406 -0.012005366 0.033538036 -0.42164508 0.19520795 0.06198376 -0.41732794
0.13523503 0.21373847 0.033660844 -0.005155782 -0.08543537 0.16924687 0.11859894 -0.36464426
0.036542594 0.21485992 -0.66998816 0.23542939 -0.5644063 -0.039461378 0.20343505 0.07163696
0.15233743 -0.23837215 -0.41925982 0.11999684 -0.016469495 0.14681096 -0.28789988 -0.38114643
-0.43529764 -0.2435837 -0.20417973 0.02360499 0.10345891 0.15312459 -0.36452693 -0.34983212
-0.15620564 -0.003815156 0.2040879 0.2387327 -0.3114842 0.1647896 0.1432384 -0.023908176
0.17238475 0.1505459 -0.6113043 -0.41981137 -0.028420266 0.16507463 0.16525729 0.0345988
0.028982546 0.15311281 0.14676896 -0.048774395 0.17818573 -0.056027506 -0.8005631 -0.26526514
0.0967509 -0.24898079 -0.63104284 -0.27811876 -0.18888018 0.07463392 -0.3117246 0.091938645
0.17664117 -0.36619893 -0.18822275 -0.41563714 0.107054375 -0.043897048 0.07621634 -0.20565383
0.1315485 0.12953933 0.14775734 -0.07030971 0.17228977 -0.3070512 -0.21992914 -0.032568946
0.17932974 0.050338935 -0.1703269 -0.11026746 0.051068783 0.09529304 -0.3400146 0.18876375
-0.357012 -0.0063533005 -0.409846 0.18820728 -0.33625275 -0.43274528 -0.21615957 -0.4926722
0.19030617 -0.15401037 0.01562214 -0.19718653 -0.49047047 -0.17015433 0.083273165 0.09188336
-0.4299995 0.22609304 0.09474434 -0.6903094 -0.6158898 -0.41498426 0.16375995 0.01195017
-0.31471324 -0.2197938 0.061943676 0.19692756 0.010634975 -0.4699556 0.1533716 0.09795079
0.15140685 -0.28942704 -0.20033148 -0.3487859 -0.2474093 0.09619107 -0.50378823 -0.11524682
0.019700497 -0.513143 0.1523971 -0.025630152 0.17306533 0.28182885 -0.1200756 0.06263262
0.10969655 -0.5451196 0.20740414 0.03856456 0.08058026 0.11607252 -0.295325 -0.27877992
-0.17517087 -0.42279348 -0.1607087 -0.049582355 -0.19649023 -0.81138057 0.12361312 0.09666725
-0.45637512 0.17916596 -0.19153713 0.13789997 -0.40200353 0.2574952 -0.43548876 -0.18020833
0.1548115 -0.48635268 -0.27214912 -0.6420855 -0.03849916 -0.6840307 -0.47939926 0.107278846
-0.6744464 0.153508 -0.12753756 0.11331494 -0.068673946 0.19478044 0.07440718 0.06129858
0.15913422 -0.34367344 0.17835532 -0.42581207 -0.3034594 -0.14885367 -0.24287647 -0.45901766
0.16199262 -0.18604358 0.12733318 0.1375323 -0.5536155 0.108235784 -0.13435984 -0.30512404
-0.14628135 -0.20751077 -0.2149367 -0.39329 0.12557654 -0.3469504 -0.0400881 0.15671407
-0.25786662 -0.3322342 0.17374708 0.16346563 -0.4424481 0.18028058 -0.31120467 0.1326943
0.15502451 0.09102512 0.14130536 -0.14760327 -0.444386 -0.122800104 0.116585165 -0.58348393
00000000: 2b39 4d3e 769b fa3d c0bf 043e 6da5 fe3d
00000010: dc3b 0bbc 4e58 04bf 958d 283d 8278 603e
00000020: ae2c a9be 87ff f4be aceb 893d 97b4 f5be
00000030: df7f c83c ec1d cc3c 4e7a 21be e365 7f3e
00000040: 39b8 533e b9a5 0abf d2c0 3e3c 09b3 f43d
00000050: 1c92 12bf 98e7 0a3e ffcc b2be c9b8 fbbe
00000060: 8f4d 193e abf7 13bd 4642 cd3d 7b3a 97bc
00000070: 0b3f 163d be8e dfb9 6bb6 43bf e9f0 d9be
00000080: 0290 8bbe ee5a 5bbe 28b2 44bc 2e5f 093d
00000090: dde1 d7be 98e4 473e afe2 7d3d 02ac d5be
000000a0: 0d7b 0a3e 42de 5a3e f4df 093d d6f1 a8bb
000000b0: bdf8 aebd 0d4f 2d3e 00e4 f23d a7b2 babe
000000c0: b0ad 153d 3d04 5c3e 5884 2bbf 6714 713e
000000d0: ee7c 10bf 41a2 21bd 4751 503e 66b6 923d
000000e0: 58fe 1b3e d417 74be 39a9 d6be e7c0 f53d
000000f0: 09eb 86bc 9d55 163e 9d67 93be a025 c3be
00000100: 55df debe 016e 79be 7e14 51be 415f c13c
00000110: 44e2 d33d b1cc 1c3e 46a3 babe 321d b3be
00000120: 5ff4 1fbe b207 7abb 6bfc 503e 5876 743e
00000130: db7a 9fbe 9bbe 283e 16ad 123e 14db c3bc
00000140: a185 303e b428 1a3e 707e 1cbf 84f1 d6be
00000150: 9ed1 e8bc 5309 293e 3539 293e 79b7 0d3d
00000160: ce6c ed3c 9bc9 1c3e 9a4a 163e a9c7 47bd
00000170: 5276 363e 197d 65bd b4f1 4cbf d5d0 87be
00000180: 5625 c63d d2f4 7ebe 068c 21bf 9565 8ebe
00000190: ce69 41be abd9 983d 5e9a 9fbe 544a bc3d
000001a0: 6ce1 343e 6d7e bbbe 77bd 40be 64ce d4be
000001b0: 533f db3d 64cd 33bd 5017 9c3d eb96 52be
000001c0: a6b4 063e f5a5 043e b34d 173e 8afe 8fbd
000001d0: bb6c 303e d135 9dbe 1b35 61be 0467 05bd
000001e0: 37a2 373e 3330 4e3d 2d6a 2ebe e8d3 e1bd
000001f0: 802d 513d ff28 c33d 6516 aebe 494b 413e
00000200: 47ca b6be 592f d0bb 56d7 d1be 69b9 403e
00000210: 5229 acbe ca90 ddbe ef58 5dbe 883f fcbe
00000220: 9fdf 423e e5b4 1dbe 01f4 7f3c 44eb 49be
00000230: f21e fbbe f03c 2ebe 1f8b aa3d 582d bc3d
00000240: e528 dcbe ef84 673e 5209 c23d 1eb8 30bf
00000250: f4aa 1dbf d178 d4be b0b0 273e a5ca 433c
00000260: 1822 a1be a011 61be a7b8 7d3d 61a7 493e
00000270: 513e 2e3c 059e f0be 720d 1d3e 6c9a c83d
00000280: 660a 1b3e c82f 94be b223 4dbe 1194 b2be
00000290: dd58 7dbe d3ff c43d 44f8 00bf 8606 ecbd
000002a0: f062 a13c 575d 03bf fc0d 1c3e 53f6 d1bc
000002b0: 0a38 313e df4b 903e 32ea f5bd 8845 803d
000002c0: 96a8 e03d f58c 0bbf c061 543e dff5 1d3d
000002d0: 4307 a53d 6eb7 ed3d d734 97be 3ebc 8ebe
000002e0: fe5f 33be 6378 d8be d290 24be de16 4bbd
000002f0: bc34 49be a3b6 4fbf e028 fd3d 7bf9 c53d
00000300: 00aa e9be 4877 373e 4f22 44be a635 0d3e
00000310: 68d3 cdbe 69d6 833e 62f8 debe 8888 38be
00000320: e886 1e3e 3803 f9be 2157 8bbe b75f 24bf
00000330: 4cb1 1dbd a31c 2fbf d273 f5be 03b5 db3d
00000340: 85a8 2cbf 3331 1d3e 3599 02be aa11 e83d
00000350: eda4 8cbd 8674 473e cb62 983d 3814 7b3d
00000360: 15f4 223e f7f5 afbe c7a2 363e 0a04 dabe
00000370: 085f 9bbe 196d 18be 9cb4 78be 5d04 ebbe
00000380: 65e1 253e 3582 3ebe a163 023e 44d5 0c3e
00000390: bfb9 0dbf b9aa dd3d a095 09be 3839 9cbe
000003a0: c7ca 15be b47d 54be 5e18 5cbe 4f5d c9be
000003b0: 2397 003e 7ca3 b1be 6b33 24bd a779 203e
000003c0: 1807 84be 9a1a aabe c1ea 313e 8963 273e
000003d0: 8f88 e2be 799b 383e 3856 9fbe 04e1 073e
000003e0: bfbe 1e3e 616b ba3d 5ab2 103e 5025 17be
000003f0: 9086 e3be 9f7e fbbd 34c4 ee3d 345f 15bf

fc.3.bias f4 [23]
0.09801729 -0.01919897 -0.025296178 0.005600638 -0.004368704 -0.06076911 -0.045588434 -0.026532624
-0.018893851 -0.008695971 -0.003270716 0.019462587 -0.023487993 -0.020960782 -0.041194517 0.008956959
-0.010069804 -0.014842122 0.12624387 -0.07106956 0.045532186 0.08483513 -0.011309386
00000000: 4abd c83d 2947 9dbc ee39 cfbc 8f85 b73b
00000010: 5827 8fbb 08e9 78bd f0ba 3abd f25a d9bc
00000020: 47c7 9abc 8c79 0ebc 8259 56bb 0170 9f3c
00000030: e469 c0bc f2b5 abbc 95bb 28bd 35c0 123c
00000040: d2fb 24bc 5f2c 73bc 1346 013e eb8c 91bd
00000050: f57f 3a3d 0abe ad3d 014b 39bc
