audio_cnn_model.pth (torch, 551533 bytes, 4 tensors)

fc.0.weight f4 [256, 512]
00000000: 4956 6cbd 9c28 183e ec9b 573d c62c b13e
00000010: fd65 f5bd 8071 2abe fab2 9f3d 9c90 15be
00000020: 52d4 8a3e 76a0 243e cdbf f93d f1b8 05bd
00000030: 3a8d 603e 44c9 d5bd 30a9 0fbd 8465 54be
00000040: be58 5e3e 74ae 243e b44c 6bbe df89 2cbe
00000050: a9e9 8abc 691b 023e 1661 04bd 2654 0a3d
00000060: bb10 19be bad1 ab3d 64b7 e1bc b371 60bc
00000070: 8eec 1bbd 229e 383e 7182 2dbe 23e9 f93d
00000080: f5d9 cdbd f476 933b 0a2c 4ebd ccf1 2cbe
00000090: 8506 dc3d 5ab6 55bd 792e 3f3d a191 19be
000000a0: 5fb4 18be be19 82be b605 393e 0e9e 10be
000000b0: b42b 703d 1318 81be c877 a7be baad 05bd
000000c0: 218f 02be becf 543e d6cb 05bd 7f41 b03d
000000d0: ec2b 75be 87dd 2d3c f507 64bd d362 8b3d
000000e0: 268e 63bc 7ea3 73bd 88cf cc3d 4882 d3be
000000f0: 5956 a5bd 9220 48be e1df d33d a38b 10bd
00000100: 6e03 90bd b62d 093e d690 f0bd 4a85 863d
00000110: 3fa9 1e3e c19b 8abe ac74 e0bd dc36 92be
00000120: 273c 6b3d 9e2d 3fbd 8b51 573d ab19 c13d
00000130: a43f bd3a 44ae 76bd 94b6 abbd de47 003e
00000140: 9947 3b3e d6ac a93e c6d5 bebc 7aca 40be
00000150: 1075 923b 1737 ebbc aeee 8dbd 9bfb 0abe
00000160: 41d8 64be 4148 ddbd a939 94bd 35b6 91bd
00000170: 7969 18bd 1457 0b3d 6baa 373d 1de3 5d3e
00000180: 3f00 c43d 5ac0 853e fe21 d73c 0b46 813e
00000190: 7714 35be 9d72 48be fd77 5abd 94b8 773e
000001a0: 2da0 fa3d 2c06 173e 3088 023e 725d 17be
000001b0: 1d6b 753e 1d7c 453e 4c88 233e 39d7 803e
000001c0: c135 673e 77f2 c03d 6b58 07bd a4a4 dc3d
000001d0: 2897 c53d 153b 583c 1d47 933e bc3c 483e
000001e0: 7fab 4f3e 3291 86bd de41 06be 0d0b 8abd
000001f0: ab42 5dbe 18ce 02be 8938 2f3d d497 0bbd
00000200: 52bc 08be ce47 333c 43f7 063e 9dad fdbd
00000210: 67e5 d1bc 56cf 17be 9f36 d03d 7a24 303e
00000220: 0b63 a23d 14aa c8bd 1a92 353d ce11 3a3e
00000230: ed94 333e 3af0 5d3d f31c 1f3d ad5f 8e3d
00000240: 9067 983e fd11 8cbd 3913 84be 15ec 493e
00000250: aecd 6b3d e834 e7bc 59fd e5bd 37e1 e6bc
00000260: b3a2 b6be f706 f83a 428c d6bc 8f4e ddbd
00000270: 9c92 c5bd 10c9 5b3e dc95 3dbe c4ff f8bc
00000280: 812c 303e 8d82 913d 28ea 263d 2b22 8fbe
00000290: b7b4 7ebd b730 223d e30f b23d a509 62be
000002a0: 8722 b63c 2dd1 e63d d003 a33e 8373 92bd
000002b0: d562 cfbd 8794 163c 5180 653e 739d b7be
000002c0: ef04 7d3e 0d6c fbbd 1a40 52be d471 ecbd
000002d0: 4267 0c3e f094 d13d 03f5 cdbd 4a77 a4bc
000002e0: bcfb fb3b 2571 443d cb0e 3d3e a433 13be
000002f0: 3f61 2fbd 73a4 0e3e 3356 593e e389 863e
00000300: d3ff 733e 7b6d f0bd b185 523e c79b 873d
00000310: 7ac7 223e 7c8c 233d 6fcf 69bd e88f 2d3e
00000320: db79 f73d 84ae 833d 51d9 babe d8b7 213e
00000330: de3e e73d dc05 763d c866 5abd f92b 2bbe
00000340: 97cd 103d d135 1d3e 6c21 33be c446 c5bc
00000350: f018 173d 7dfb b83e 4235 633e 4b7b 483e
00000360: c798 883e ea2f 053e 9ad4 6ebe eb78 82be
00000370: ca47 8dbb 0855 e3bd 248f 3cbd d3e6 443e
00000380: eaf1 8ebd 923e b33c 2922 0ebd 06b6 333e
00000390: d5ad 123e 2117 b53d c8e5 693c 858a e3bd
000003a0: 3b6c 1bbe b5ab 02be ae86 aabc 90bb 9b3e
000003b0: b1f1 80be bb6a 2fbe 8eab 9dbe a69e b83d
000003c0: 8b5f f2bd 099a 5a3d 95b5 383e 159b 8b3d
000003d0: ef6e a63c dc79 a33d 87d1 3a3e 01f0 3a3d
000003e0: 1865 c2bd f2c0 3bbd 6e5c c2bc 6fd5 2b3d
000003f0: b555 ee3d eabd ce3d 2268 8cbe 556c 2e3e
-0.057699475 0.14859241 0.052638933 0.34604472 -0.11982343 -0.1664486 0.07797809 -0.14605945
0.27115113 0.16076836 0.12194786 -0.032647077 0.21928874 -0.10438779 -0.03507346 -0.2074185
0.2171354 0.16082174 -0.22978479 -0.16849469 -0.016957121 0.12705769 -0.03231915 0.033771656
-0.14947788 0.083896115 -0.027553268 -0.013698983 -0.038067393 0.18029073 -0.1694429 0.122026704
-0.10051338 0.0045002643 -0.050334968 -0.16889113 0.10743431 -0.052175857 0.04667518 -0.1499696
-0.14912556 -0.25410265 0.18068585 -0.14122793 0.05863543 -0.2521368 -0.32708573 -0.03263638
-0.12749912 0.20782372 -0.032665096 0.086062424 -0.23942536 0.010611898 -0.05567165 0.068059586
-0.013888871 -0.05948209 0.10000521 -0.41310334 -0.0807311 -0.19543675 0.10345436 -0.035289418
-0.07031904 0.13396344 -0.11746375 0.065683916 0.1549425 -0.27071956 -0.109597534 -0.2855748
0.057430413 -0.046674363 0.052568 0.09428724 0.0014438522 -0.060224786 -0.083844334 0.12527415
0.18289031 0.33139676 -0.023295294 -0.18827239 0.0044695213 -0.028712792 -0.0693029 -0.13572542
-0.2234812 -0.10804797 -0.0723756 -0.07114831 -0.03720996 0.03401859 0.044840258 0.21668668
0.095703594 0.26123315 0.026261326 0.2524875 -0.17683588 -0.19574971 -0.053337086 0.24191505
0.12237582 0.14748448 0.12747264 -0.1478174 0.23966642 0.19285627 0.15969962 0.25164202
0.22579099 0.094212465 -0.033043306 0.1077359 0.096479714 0.01319768 0.28765193 0.19554418
0.20280264 -0.065706626 -0.13111064 -0.06740389 -0.21607463 -0.12773931 0.042778526 -0.03408034
-0.13353088 0.010942413 0.1318026 -0.1238663 -0.025622083 -0.14825186 0.10166668 0.17201415
0.07929047 -0.09798065 0.044328786 0.18170854 0.1753728 0.054184176 0.038845968 0.069518425
0.29766512 -0.068393685 -0.25795916 0.19718964 0.0575692 -0.02822347 -0.11229963 -0.028183563
-0.35671005 0.0018922974 -0.026189927 -0.108059995 -0.09647104 0.21463418 -0.18514198 -0.030395396
0.17204477 0.07104979 0.040750653 -0.27955756 -0.06218406 0.03959724 0.086944364 -0.22073992
0.02223326 0.11270366 0.31838846 -0.07150938 -0.101262726 0.009190685 0.2241223 -0.35862312
0.24708913 -0.122764684 -0.20532265 -0.115451485 0.13711265 0.10233486 -0.10056498 -0.020076413
0.007689921 0.047959466 0.18462674 -0.14375168 -0.04281735 0.1392992 0.21224289 0.26277074
0.23828058 -0.11739632 0.20558812 0.06621509 0.15896407 0.0399289 -0.05708259 0.16949427
0.12083789 0.064297706 -0.36493924 0.15792787 0.11291288 0.06006418 -0.053320676 -0.16715993
0.035352316 0.1535256 -0.17493218 -0.024081595 0.036889017 0.3612937 0.22188285 0.19578283
0.2667906 0.13006559 -0.23323289 -0.25482878 -0.0043115364 -0.11100203 -0.046034947 0.19228677
-0.06979735 0.021880422 -0.034700546 0.17549905 0.14324124 0.08842302 0.0142759755 -0.11110405
-0.15178005 -0.12760814 -0.020816173 0.30416536 -0.25184396 -0.17130558 -0.30794948 0.09014635
-0.118346296 0.053369556 0.18038018 0.06816689 0.02031657 0.07982227 0.18243991 0.04563904
-0.09491938 -0.045838304 -0.023725715 0.041951593 0.11637441 0.10094817 -0.27423197 0.17033513

fc.0.bias f4 [256]
00000000: 0647 973d 836e ab3d b33c 2b3e e34e 90bc
00000010: c4f7 c73c 06c4 683e 09cd 763d f58b fc3d
00000020: 85be cdbb a26d 863d 91da 4bbd 5631 0f3d
00000030: 79ba 043e 3523 2b3c 5108 9d3b df59 0abd
00000040: 7e72 803d 3267 983d 6cb9 8f3c 5854 983d
00000050: 8e38 b93d 857b d63d 159b 2c3d 43df b53d
00000060: 20aa b53d 359f e43c baf0 b33d 187c e43d
00000070: 507b 103e 9e3a ff3d 810c ed3d 3be1 e73d
00000080: 3f6c 2c3d 20b7 af3d ee5d 633d 74d7 643d
00000090: 9a7a c83d c095 453d 8f8b 543d 2470 6f3d
000000a0: f05f cd3d c72d 0d3e 0cb0 073e b749 da3c
000000b0: 8bc1 8c3d 6a76 05bd 89a7 fb3c 55d1 653d
000000c0: 9487 033d 408c b33d 0316 803d aca5 2a3d
000000d0: 6697 ec3d 7477 343d 7859 393e 34f6 ee3d
000000e0: 0cde 093e ef69 0c3e 2528 7e3d 5939 01bd
000000f0: 1e9d 093e 2bae be3d 794f d33d 3ca1 013d
00000100: 3dfc d83d 4933 f83c 648a 243e be6b 6a3d
00000110: 9433 923c ce48 253d c569 e3bc e400 fb3d
00000120: 4df8 963d af19 763d 7df1 933d 0c55 d13d
00000130: f64e e23d 3462 9d3d 9433 943d a649 923d
00000140: ab20 7b3d e70d d43c 17d7 813d 6b3a 4a3d
00000150: dc1c cf3d 3a37 073e 0400 913c 608f d23c
00000160: f0fd 043d c3d4 db3d 01cc bc3d f6f6 4f3d
00000170: 595f d03d 60d3 fe3c 57bd 2a3d b900 703d
00000180: 9f14 7c3d 1bb8 a63c f880 d83d 896b d83c
00000190: f9cd 8a3d a080 e13c d0b9 7fbb 0956 543c
000001a0: 6dea c83d bff4 cd3b c1af 953d b9f0 863d
000001b0: a1c5 d83c 2b5a 2e3e 809d c63d efd4 af3d
000001c0: d45e 9f3d a6eb 3f3d 1caf 853c 00f6 d23d
000001d0: 7c72 3d3e ea96 1b3d 34b1 1b3d eed6 013e
000001e0: 2831 783d a584 9d3a 3476 dc3c eb7f 1dbd
000001f0: b139 23bd 8283 56bc f00c b43d 0c5f 863d
00000200: 7beb e53c e14f de3c 4684 073d 8e33 64bb
00000210: 06f3 29bd cef7 bc3d fcc7 e53d 93df 013e
00000220: a89c 7a3d b6c1 17bb f50f 433d 2c5f 363d
00000230: 3172 4ebd a1ee 0f3e 7a11 a5bd f416 2b3d
00000240: 3f7b 8e3d 94a6 f43c dc04 013e 7c0e e93c
00000250: dd69 b03d 6816 b03d 7276 a43b 5e13 e03d
00000260: 675a ae3d a08f b03d 8c1f 873d 9584 cf3d
00000270: 051a a0ba 6d6d b73c 6d33 cc3d 555d 503d
00000280: 5f70 c53d dc20 913d b309 1c3e 3acb 0a3d
00000290: 9aad 1d3d 0981 3e3d 3966 653d 0d74 843d
000002a0: 29cb aa3d f861 c73c 9187 a23d 96d3 863d
000002b0: 16aa 003d 18a9 14bd 9ca3 673d 767d a23d
000002c0: 6e7f a6bb 5904 413d ff6d aa3d d5be 8c3d
000002d0: 305e 733d 9588 f23d 5adb e63d 10ba 903c
000002e0: cae9 a53c 525a 7a3d 5e51 173e 310b 0b3e
000002f0: 2988 24bc 339b ab3d 5476 653d e5cd e3bc
00000300: cda4 c9bc 1163 c33d 264a 193e ebd4 a93d
00000310: 750f f93d 0538 083d 6055 3a3d 955f f33c
00000320: 64c5 9b3d 8626 903d 057d 793d 392d 803d
00000330: 20ed 523d 1126 94bd c555 123e 7cd8 583c
00000340: 5e87 4fbb 5728 bc3c 6cc5 253a e3a6 c23d
00000350: 4f76 b93d 95a5 de3d b28e 443d de5a 9d3d
00000360: 37b2 ab3c 3c33 bd3d 226f 693d 9e52 73bd
00000370: cd79 263d 25a9 9ab9 0524 873d 156b 0b3c
00000380: f10c ab3c 01ea a83d 9a7b 823d ff78 963d
00000390: 28ee ac3d 5ac3 f03d d1a9 d23d 9b78 d73c
000003a0: 18dc 323e 37de 903d 4f83 a63d e5c5 873d
000003b0: 0c56 58bc e866 f13d e2af 153d 40c6 e03d
000003c0: 0408 273e 4caf 203d 0acd 8b3d cf4c 193e
000003d0: 763e f6bc 5885 a23d 656f eb3d 4c7d 1e3d
000003e0: 2d23 5a3d 8dc2 0c3e 9f06 cd3d adca f33d
000003f0: b6c0 543d 975d a23d f450 ca3d dd95 203e
0.073865935 0.08370688 0.16722374 -0.017615741 0.024410136 0.22731027 0.06025413 0.12331382
-0.006278815 0.065638795 -0.049768988 0.03495916 0.12961759 0.010445406 0.004792251 -0.033777114
0.06271838 0.07441558 0.01754447 0.07437962 0.0904399 0.10472778 0.042140085 0.088804744
0.088703394 0.027907947 0.08786149 0.111564815 0.1410954 0.12462352 0.115746506 0.11322256
0.04209542 0.0857985 0.0555095 0.055869535 0.097890094 0.048238516 0.051890906 0.058456555
0.10028064 0.13786994 0.1325075 0.026646478 0.06872853 -0.03258363 0.030719535 0.056107838
0.03211172 0.08766985 0.062541984 0.041661903 0.115523145 0.044059232 0.18100536 0.11668053
0.1346361 0.13712285 0.062050004 -0.03154883 0.13438842 0.09310564 0.103178926 0.031647906
0.10594986 0.030297892 0.16068417 0.057231657 0.01784686 0.040352635 -0.027760396 0.12256029
0.07371578 0.060083088 0.072237946 0.102212995 0.11050217 0.076847464 0.072364 0.071429536
0.06131045 0.025885535 0.06339853 0.049372118 0.10112926 0.13204661 0.017700203 0.025703132
0.032468736 0.107339405 0.09218598 0.05077263 0.10174436 0.03110665 0.041684475 0.05859444
0.061543103 0.02035146 0.10571474 0.026418464 0.067775674 0.027527153 -0.0039020665 0.0129599655
0.09810338 0.0062852795 0.07308913 0.06588883 0.026461424 0.17026584 0.096980095 0.08585536
0.07781759 0.04685559 0.01631885 0.10300827 0.18500704 0.03798572 0.03801079 0.12679645
0.060593754 0.001201768 0.026911832 -0.03845207 -0.03984994 -0.013092877 0.0879153 0.065610975
0.028066387 0.027137699 0.03308513 -0.0034820768 -0.04149153 0.092269525 0.112197846 0.12682943
0.061184555 -0.0023156232 0.04762264 0.044524357 -0.05040187 0.14055873 -0.08059974 0.041769937
0.06957101 0.029864587 0.1259951 0.02844929 0.08613942 0.08598024 0.0050190026 0.10941194
0.08513337 0.08621144 0.06597814 0.1013271 -0.0012214786 0.022391045 0.09970746 0.05087026
0.09640574 0.070863456 0.15238075 0.03388522 0.038495637 0.046509776 0.05600569 0.064674474
0.08339531 0.024338707 0.079360135 0.065833256 0.031412207 -0.036294073 0.056552514 0.07934086
-0.005081109 0.047123287 0.08321761 0.06872336 0.059415996 0.11842457 0.11272307 0.017666847
0.02025308 0.061121292 0.14777133 0.13578488 -0.010042229 0.08379211 0.05602105 -0.02780814
-0.024614716 0.0954038 0.14969692 0.08292564 0.12161151 0.03325655 0.045491576 0.029708663
0.07606009 0.07038598 0.060910244 0.062586255 0.05149567 -0.07233823 0.14290531 0.013235208
-0.0031666378 0.022968454 0.00063236686 0.09504487 0.09055769 0.10871426 0.047987647 0.07683347
0.020959003 0.09238288 0.05699075 -0.05940496 0.040643502 -0.0002949919 0.06598667 0.008509417
0.020880194 0.08247758 0.063712314 0.07347297 0.08443862 0.1175601 0.10286296 0.026302626
0.17466772 0.07073634 0.08130514 0.06629542 -0.013204109 0.11787206 0.036544688 0.10975313
0.16311651 0.039229676 0.068262175 0.14970706 -0.03005908 0.079355896 0.11495856 0.03869371
0.053256202 0.1374609 0.100110285 0.11903892 0.051941596 0.07928007 0.09878722 0.15682168

fc.3.weight f4 [23, 256]
00000000: ea77 85be f973 e13d b735 233e 4607 183e
00000010: 58a1 f8be 3c03 7fbe dd03 2f3e 34ab 803d
00000020: 9f48 093e 9b7a 2e3e e3ef e0be f4f4 653d
00000030: a901 a93d 907c b2be 2de7 473e 1843 2cbf
00000040: 262b 0e3e a97b 343e 3d11 243e 9204 cabe
00000050: 5cba ffbe 5c67 32bf db65 d7be 8819 163d
00000060: d276 423e b204 c1be 8a62 57be 148d 153e
00000070: d613 ecbe 1731 253e 5da2 843e 6740 d03d
00000080: db22 1a3e 318e aa3d b9a8 763d 46b8 1f3e
00000090: 2ac0 a8bd 3b98 123e a1c6 c2be 5c9e 1bbf
000000a0: af29 8f3d 423a e43d 4280 383e 76ac 06bf
000000b0: 0ef2 97bd 7d7c eebd b957 07bd 88fb c4be
000000c0: 51de f7bc e1f4 243e f491 b4be 9fe8 ecbe
000000d0: 75a7 b2be 8e84 d4be f819 633e 27b3 303e
000000e0: 2298 173e 0616 233e 6009 5b3e 3622 7dbe
000000f0: 5bb7 293e 896b 6b3e 042b df3d 21fd f73d
00000100: c894 ea3d b20f 0a3e 46ed a6be e729 52bd
00000110: b1b7 0c3e 2cc8 2b3e fc92 573c b25d 21bf
00000120: 3792 903e e02e 08bf 152a 55be b32c 31bf
00000130: 44ba 193e 40db 8cbe 1a47 00bf bc4f e03d
00000140: 6082 dcbe 076a 02bf 0687 38bd b40f e9be
00000150: 4b74 d63d 5742 2a3e b3d0 b0be 30ce 99bd
00000160: c3bc 233d 5628 373d 1399 123e c2d5 0f3e
00000170: c081 c3be 723b 123e 2ace 05bf 2d1c 213e
00000180: 0bb5 063e 6e09 41be 6ebb 9ebb e3fd 7bbe
00000190: c106 15be fc61 26be 9fd6 d4be 39ff 793e
000001a0: 8636 e3bd bd62 a1bd 43df 19bd 0ab7 9b3d
000001b0: 6151 cfbe 5e7c 83be a52a 383e 2591 17bf
000001c0: 164e 363d 4e93 503e e304 22bf 8ff2 173e
000001d0: 09b2 203e 45a0 1fbf d011 8dbe 3081 cbbe
000001e0: 76f0 343e 80e3 8bbe 7a57 a73e 06ab dc3d
000001f0: dfa6 0fbf 3591 9abd e597 003e 0272 043e
00000200: 2be5 4bbe 8abe 1bbf 9d40 153e 9810 d7bd
00000210: ca5c 3ebe 2bf7 a9be 232d 193e e611 cdbe
00000220: f333 ac3d 71a2 b8be 1f3b 3f3e 411e f6be
00000230: f7be 21bd ba2e 373e b7e2 a0bc 9d16 24bf
00000240: e2bc 0abf 466b 0b3d ccdc 94bc cc3a 58be
00000250: ed4f 19bf f50c 6b3e ebf6 e4bd 0e1e 46bf
00000260: 2d52 f9be 470a d1bc 0b8c 31be f3c3 703d
00000270: 8223 5ebe 758f edbd 904a 083e 9626 bcbb
00000280: f7f6 b8be d05f 2a3e db9e 563c a2a3 bcbd
00000290: 97d2 d53d 9471 9dbe e901 6ebe 397b fdbe
000002a0: 99af aa3e 945b 3bbe d40c 95be 0f81 023e
000002b0: 47d8 47bf 66cd f6bd 5881 a7be 8e57 153e
000002c0: d3d5 bfbe 45e1 333d 649e 1cbf 034a 05bf
000002d0: 65b2 393e 12b7 8dbd 3fdc eb3c acba c73d
000002e0: 44fb b43d cd2e 843d c4ce 97be 5a7b 70be
000002f0: 3dcb ac3d be88 9fbe 3c0b 99be d28b 20bd
00000300: 7f46 22be 1dac 9e3d 5b03 343e 47b4 8abe
00000310: 7e59 353e 4de0 973e 2f1f 133e 660c 98bd
00000320: 457d 11bd 7dc4 623e 7766 5abe bb58 243e
00000330: a7ba dfbe 0c26 b73d b15d b9be d79c 013e
00000340: f266 6bbd 6f3b 293e 7ad0 62bd 54d0 a2bb
00000350: be5e 7fbe fb82 03bd 3abe 4bbf e044 08be
00000360: 00e5 eabe 12cc a03d 1e30 a6bc ea0e 0ebf
00000370: be49 183e e369 d5be b6d2 4cbe 379e ac3d
00000380: 6e3e 4b3e 5da9 65be a523 183e a094 28bf
00000390: 37a4 293e 07ae 89be f43b da3d 2ee8 633b
000003a0: a2b1 ba3d d5e4 d33d f308 343e cc67 433e
000003b0: aeb3 d7be 48b4 f83d 9318 b63d 657b 353e
000003c0: 4621 1ebe 3a41 943d 495b 173e 675e d6bd
000003d0: d531 45be 1b8c da3d 26e1 583e 58a0 113e
000003e0: 7414 b2be 15d5 013e b57c 73bd 8099 2dbd
000003f0: 23c9 b6bc f046 eabe e3bf 1ebf 5748 333c
-0.2606805 0.11008448 0.1593846 0.14846525 -0.48560596 -0.24903578 0.17091317 0.062826544
0.13406609 0.17038958 -0.4393302 0.05614181 0.0825227 -0.3486066 0.1952178 -0.67289877
0.13883647 0.17625298 0.16022201 -0.39456612 -0.49946868 -0.69688964 -0.42069897 0.036645442
0.18990639 -0.37698895 -0.21033683 0.14604598 -0.46108884 0.16132008 0.25905123 0.10168534
0.15052359 0.08327902 0.0602195 0.15597638 -0.082397774 0.14315884 -0.38042167 -0.6078851
0.069903724 0.11143924 0.18017676 -0.52606905 -0.07419215 -0.11644838 -0.033042643 -0.38473153
-0.030257376 0.16109039 -0.35267603 -0.46271226 -0.34893385 -0.4150738 0.22177875 0.17255841
0.14804128 0.1592637 0.21390295 -0.24720082 0.16573851 0.2299024 0.108968765 0.121088274
0.11454159 0.1348255 -0.326029 -0.051309492 0.13741948 0.16775578 0.013157602 -0.6303359
0.28236553 -0.53196526 -0.20816834 -0.6920883 0.15012461 -0.27511024 -0.5010849 0.10952708
-0.43068218 -0.50943035 -0.045050643 -0.45519793 0.104714 0.16626869 -0.34534225 -0.0751003
0.03997494 0.0447162 0.14316206 0.14046386 -0.3818493 0.14280489 -0.52267706 0.15733404
0.13155 -0.18851253 -0.0048441207 -0.24608569 -0.14553358 -0.16248316 -0.41569993 0.24413766
-0.11094384 -0.07880161 -0.037566435 0.07603271 -0.40491775 -0.25680822 0.17985018 -0.5920585
0.044508062 0.20368692 -0.63288707 0.14838623 0.15692915 -0.62353927 -0.27552652 -0.39747
0.17669854 -0.27322006 0.32683927 0.10774808 -0.56114 -0.07547227 0.12557943 0.12934116
-0.1991164 -0.60837615 0.1457543 -0.10501212 -0.18590084 -0.33196387 0.14958625 -0.40052718
0.08408346 -0.36061433 0.18674897 -0.48069957 -0.03948876 0.17888919 -0.019639356 -0.64097005
-0.5419446 0.03403785 -0.01817169 -0.21116179 -0.5988758 0.22954161 -0.11179908 -0.7738961
-0.48695508 -0.025517596 -0.17338578 0.05878062 -0.21693233 -0.11599628 0.13309693 -0.0057419045
-0.3612592 0.16638112 0.0130993975 -0.09210898 0.104405575 -0.30750716 -0.23242916 -0.49508074
0.33337095 -0.18296653 -0.2911135 0.12744544 -0.7806439 -0.120508954 -0.3271587 0.1458418
-0.37467822 0.043916006 -0.61179185 -0.5206606 0.18134458 -0.069196835 0.028791545 0.09752402
0.088369876 0.06454239 -0.29649937 -0.23484555 0.08437202 -0.31159014 -0.29891384 -0.039195843
-0.15847205 0.07747672 0.17579405 -0.27090666 0.1770992 0.29663315 0.14367364 -0.0742424
-0.035519857 0.22145267 -0.2132815 0.16049473 -0.43697092 0.08942804 -0.36204293 0.12657486
-0.057471223 0.16526578 -0.0553746 -0.0049686823 -0.24938485 -0.032107335 -0.7958714 -0.13307524
-0.45877838 0.07851423 -0.020286616 -0.5549151 0.1487188 -0.41682348 -0.20002255 0.084286146
0.19848034 -0.22427888 0.14857347 -0.65851784 0.16566549 -0.26890585 0.106559664 0.003477584
0.09115912 0.103463806 0.17581539 0.19082564 -0.42129272 0.12143761 0.08891406 0.17722853
-0.1544238 0.072390035 0.14780916 -0.104672246 -0.1925729 0.10671254 0.21179637 0.14221323
-0.3478123 0.1267894 -0.0594451 -0.042382717 -0.022312706 -0.45757246 -0.62011546 0.01094254

fc.3.bias f4 [23]
00000000: fddc 9b3c b7c4 26bd e3ce 873b b5f9 9a3d
00000010: 347c 8bbd e26e 9dbd 5397 583d 5f21 98bc
00000020: 3ca1 04bd cbc1 e9bc dc46 cabd dea6 5dbd
00000030: 41bd ed3c b5c2 9cbd b8c4 563d 9e90 babc
00000040: a899 53bd 5e28 0cbd eabd ca3d 7889 34bc
00000050: 9714 0dbc a80f 8b3d e870 903d
0.019026274 -0.040714946 0.004144536 0.07567159 -0.06810799 -0.07687165 0.05287869 -0.0185706
-0.032380328 -0.02853479 -0.098767966 -0.054114215 0.029020907 -0.07654325 0.0524337 -0.022774037
-0.05166021 -0.034218185 0.098995045 -0.011019103 -0.008610866 0.067900956 0.07052785
